# YOLOv7 🚀, GPL-3.0 license
# parameters
nc: 80  # number of classes
depth_multiple: 0.33  # model depth multiple
width_multiple: 1.0  # layer channel multiple

# yolov7 backbone by yoloair
backbone:
  # [from, number, module, args]
  [[-1, 1, Conv, [32, 3, 1]],  # 0
   [-1, 1, Conv, [64, 3, 2]],  # 1-P1/2
   [-1, 1, Conv, [64, 3, 1]],
   [-1, 1, Conv, [128, 3, 2]],  # 3-P2/4 
   [-1, 1, CNeB, [128]], 
   [-1, 1, Conv, [256, 3, 2]],
 
   [-1, 1, MP, []],
   [-1, 1, Conv, [128, 1, 1]],
   [-3, 1, Conv, [128, 1, 1]],
   [-1, 1, Conv, [128, 3, 2]],
   [[-1, -3], 1, Concat, [1]],  # 16-P3/8
   [-1, 1, Conv, [128, 1, 1]],
   [-2, 1, Conv, [128, 1, 1]],
   [-1, 1, Conv, [128, 3, 1]],
   [-1, 1, Conv, [128, 3, 1]],
   [-1, 1, Conv, [128, 3, 1]],
   [-1, 1, Conv, [128, 3, 1]],
   [[-1, -3, -5, -6], 1, Concat, [1]],
   [-1, 1, Conv, [512, 1, 1]],

   [-1, 1, MP, []],
   [-1, 1, Conv, [256, 1, 1]],
   [-3, 1, Conv, [256, 1, 1]],
   [-1, 1, Conv, [256, 3, 2]],
   [[-1, -3], 1, Concat, [1]],
   [-1, 1, Conv, [256, 1, 1]],
   [-2, 1, Conv, [256, 1, 1]],
   [-1, 1, Conv, [256, 3, 1]],
   [-1, 1, Conv, [256, 3, 1]],
   [-1, 1, Conv, [256, 3, 1]],
   [-1, 1, Conv, [256, 3, 1]],
   [[-1, -3, -5, -6], 1, Concat, [1]],
   [-1, 1, Conv, [1024, 1, 1]], 
         
   [-1, 1, MP, []],
   [-1, 1, Conv, [512, 1, 1]],
   [-3, 1, Conv, [512, 1, 1]],
   [-1, 1, Conv, [512, 3, 2]],
   [[-1, -3], 1, Concat, [1]],
   [-1, 1, CNeB, [1024]],
   [-1, 1, Conv, [256, 3, 1]],
  ]

# yolov7 head by yoloair
head:
  [[-1, 1, SPPCSPC, [512]],

   [-1, 1, Conv, [256, 1, 1]],
   [-1, 1, nn.Upsample, [None, 2, 'nearest']],
   [31, 1, Conv, [256, 1, 1]],
   [[-1, -2], 1, Concat, [1]],
   [-1, 1, C3C2, [128]],

   [-1, 1, Conv, [128, 1, 1]],
   [-1, 1, nn.Upsample, [None, 2, 'nearest']],
   [18, 1, Conv, [128, 1, 1]],
   [[-1, -2], 1, Concat, [1]],
   [-1, 1, C3C2, [128]],

   [-1, 1, MP, []],
   [-1, 1, Conv, [128, 1, 1]],
   [-3, 1, Conv, [128, 1, 1]],
   [-1, 1, Conv, [128, 3, 2]],
   [[-1, -3, 44], 1, Concat, [1]],
   [-1, 1, C3C2, [256]], 

   [-1, 1, MP, []],
   [-1, 1, Conv, [256, 1, 1]],
   [-3, 1, Conv, [256, 1, 1]],
   [-1, 1, Conv, [256, 3, 2]], 
   [[-1, -3, 39], 1, Concat, [1]],
   [-1, 3, C3C2, [512]],

   [49, 1, RepConv_v7, [256, 3, 1]],
   [55, 1, RepConv_v7, [512, 3, 1]],
   [61, 1, RepConv_v7, [1024, 3, 1]],

   [[62, 63, 64], 1, IOBB, [nc, 1]],   # IOBB(P3, P4, P5)
  ]