# parameters
nc: 80  # number of classes
depth_multiple: 1.0  # dont change this otherwise InvertedResidual will be affected
width_multiple: 1.0  # dont change this otherwise InvertedResidual will be affected

# YOLOv5 backbone
backbone:
  # MobileNetV3-large
  # [from, number, InvertedResidual module, [in, out, filter, hidden, stride, use_se, use_hs]]
  [[-1, 1, Conv, [16, 3, 2]],                          # 0-p1/2
   [-1, 1, mobilev3_bneck, [ 16,  16, 3, 1, 0, 0]],  # 1-p1/2
   [-1, 1, mobilev3_bneck, [ 24,  64, 3, 2, 0, 0]],  # 2-p2/4
   [-1, 1, mobilev3_bneck, [ 24,  72, 3, 1, 0, 0]],  # 3-p2/4
   [-1, 1, mobilev3_bneck, [ 40,  72, 5, 2, 1, 0]],  # 4-p3/8
   [-1, 1, mobilev3_bneck, [ 40, 120, 5, 1, 1, 0]],  # 5-p3/8
   [-1, 1, mobilev3_bneck, [ 40, 120, 5, 1, 1, 0]],  # 6-p3/8
   [-1, 1, mobilev3_bneck, [ 80, 240, 3, 2, 0, 1]],  # 7-p4/16
   [-1, 1, mobilev3_bneck, [ 80, 200, 3, 1, 0, 1]],  # 8-p4/16
   [-1, 1, mobilev3_bneck, [ 80, 184, 3, 1, 0, 1]],  # 9-p4/16
   [-1, 1, mobilev3_bneck, [ 80, 184, 3, 1, 0, 1]],  # 10-p4/16
   [-1, 1, mobilev3_bneck, [112, 480, 3, 1, 1, 1]],  # 11-p4/16
   [-1, 1, mobilev3_bneck, [112, 672, 3, 1, 1, 1]],  # 12-p4/16
   [-1, 1, mobilev3_bneck, [160, 672, 5, 1, 1, 1]],  # 13-p4/16
   [-1, 1, mobilev3_bneck, [160, 672, 5, 2, 1, 1]],  # 14-p5/32
   [-1, 1, mobilev3_bneck, [160, 960, 5, 1, 1, 1]],  # 15-p5/32
  ]

# v8Lite-s head
head:
  [[-1, 1, nn.Upsample, [None, 2, 'nearest']],
   [[-1, 13], 1, Concat, [1]],  # cat backbone P4
   [-1, 1, C2f, [256]],  # 18

   [-1, 1, nn.Upsample, [None, 2, 'nearest']],
   [[-1, 6], 1, Concat, [1]],  # cat backbone P3
   [-1, 1, C2f, [128]],  # 21 (P3/8-small)

   [-1, 1, Conv, [128, 3, 2]],
   [[-1, 21], 1, Concat, [1]],  # cat head P4
   [-1, 1, C2f, [256]],  # 24 (P4/16-medium)

   [-1, 1, Conv, [256, 3, 2]],
   [[-1, 18], 1, Concat, [1]],  # cat head P5
   [-1, 1, C2f, [512]],  # 27 (P5/32-large)

   [[21, 24, 27], 1, OBB, [nc, 1]],  # Detect(P3, P4, P5)
  ]