# Ultralytics YOLO 🚀, AGPL-3.0 license
# YOLOv8 object detection model with P3-P5 outputs. For Usage examples see https://docs.ultralytics.com/tasks/detect

# Parameters
nc: 80  # number of classes
scales: # model compound scaling constants, i.e. 'model=yolov8n.yaml' will call yolov8.yaml with scale 'n'
  # [depth, width, max_channels]
  n: [0.33, 0.25, 1024, 0]
  t: [0.33, 0.375, 1024, 0]
  s: [0.33, 0.50, 1024, 0]
  m: [0.67, 0.75, 768, 0]
  l: [1.00, 1.00, 512, 0]
  x: [1.00, 1.25, 512, 0]

# YOLOv8.0n backbone
backbone:
  # [from, repeats, module, args]
  - [-1, 1, StripNet_tiny, []]  # 0-4
  - [-1, 1, SPPF, [1024, 5]]  # 5

# YOLOv8.0n head
head:
  - [-1, 1, SNI, [1024, 2]]
  - [[-1, 3], 1, Concat, [1]]  # cat backbone P4
  - [-1, 3, C2f, [512]]  # 8

  - [-1, 1, SNI, [512, 2]]
  - [[-1, 2], 1, Concat, [1]]  # cat backbone P3
  - [-1, 3, C2f, [256]]  # 11 (P3/8-small)

  - [-1, 1, GSConvE, [256, 3, 2]]
  - [[-1, 8], 1, Concat, [1]]  # cat head P4
  - [-1, 3, C2f, [512]]  # 14 (P4/16-medium)

  - [-1, 1, GSConvE, [512, 3, 2]]
  - [[-1, 5], 1, Concat, [1]]  # cat head P5
  - [-1, 3, C2f, [1024]]  # 17 (P5/32-large)

  - [[11, 14, 17], 1, Detect, [nc]]  # Detect(P3, P4, P5)
