# Ultralytics YOLO 🚀, AGPL-3.0 license
# YOLO11 object detection model with P3-P5 outputs. For Usage examples see https://docs.ultralytics.com/tasks/detect

# Parameters
nc: 80 # number of classes
scales: # model compound scaling constants, i.e. 'model=yolo11n.yaml' will call yolo11.yaml with scale 'n'
  # [depth, width, max_channels]
  n: [0.50, 0.25, 1024, 0] # summary: 319 layers, 2624080 parameters, 2624064 gradients, 6.6 GFLOPs
  s: [0.50, 0.50, 1024, 0] # summary: 319 layers, 9458752 parameters, 9458736 gradients, 21.7 GFLOPs
  l: [1.00, 1.00, 512, 0] # summary: 631 layers, 25372160 parameters, 25372144 gradients, 87.6 GFLOPs
  x: [1.00, 1.50, 512, 0] # summary: 631 layers, 56966176 parameters, 56966160 gradients, 196.0 GFLOPs

# YOLO11-SoftHGNN backbone
backbone:
  # [from, repeats, module, args]
  - [-1, 1, Conv, [64, 3, 2]] 
  - [-1, 1, Conv, [128, 3, 2]] 
  - [-1, 2, C3k2, [256, False, 0.25]]
  - [-1, 1, Conv, [256, 3, 2]] 
  - [-1, 2, C3k2, [512, False, 0.25]]
  - [-1, 1, Conv, [512, 3, 2]] 
  - [-1, 2, C3k2, [512, True]]
  - [-1, 1, Conv, [1024, 3, 2]] 
  - [-1, 2, C3k2, [1024, True]]
  - [-1, 1, SPPF, [1024, 5]] 
  - [-1, 2, C2PSA, [1024]]

# YOLO11-SoftHGNN head
head:
  - [[4, 6, 10], 1, F2SoftHG, [1, True, True, 1, 0.5]]
  - [-1, 1, nn.Upsample, [None, 2, "nearest"]]
  - [11, 1, ShapeAlignConv, []]
  - [[6, 11], 1, MergeConv, []]  
  - [[4, 12], 1, MergeConv, []] 
  - [[10, 13], 1, MergeConv, []]

  - [-1, 1, nn.Upsample, [None, 2, "nearest"]]
  - [[-1, 14], 1, Concat, [1]]
  - [-1, 2, C3k2, [512, False]] 

  - [-1, 1, nn.Upsample, [None, 2, "nearest"]]
  - [[-1, 15], 1, Concat, [1]] 
  - [-1, 2, C3k2, [256, False]] 

  - [-1, 1, Conv, [256, 3, 2]]
  - [[-1, 19], 1, Concat, [1]] 
  - [-1, 2, C3k2, [512, False]] 

  - [-1, 1, Conv, [512, 3, 2]]
  - [[-1, 16], 1, Concat, [1]] 
  - [-1, 2, C3k2, [1024, True]] 

  - [[22, 25, 28], 1, Detect, [nc]] 
