# create by pogg
# parameters
nc: 80  # number of classes
scales: # model compound scaling constants, i.e. 'model=yolov5n.yaml' will call yolov5.yaml with scale 'n'
  # [depth, width, max_channels]
  n: [0.33, 0.25, 1024, 0]
  t: [0.33, 0.375, 1024, 0]
  s: [0.33, 0.50, 1024, 0]
  m: [0.67, 0.75, 1024, 0]
  l: [1.00, 1.00, 1024, 0]
  x: [1.33, 1.25, 1024, 0]

# custom backbone
backbone:
  # [from, number, module, args]
  [ [ -1, 1, CBH, [ 32, 3, 2 ] ],    # 0-P2/4
    [ -1, 1, LC_Block, [ 64, 2, 3, False ] ], # 1-P3/8
    [ -1, 1, LC_Block, [ 64, 1, 3, False ] ], # 2-P4/16
    [ -1, 1, LC_Block, [ 128, 2, 3, False ] ], # 3
    [ -1, 1, LC_Block, [ 128, 1, 3, False ] ], # 4-P5/32
    [ -1, 1, LC_Block, [ 128, 1, 3, False ] ], # 5
    [ -1, 1, LC_Block, [ 128, 1, 3, False ] ], # 6
    [ -1, 1, LC_Block, [ 256, 2, 3, False ] ], # 7-P5/32
    [ -1, 1, LC_Block, [ 256, 1, 5, False ] ],
    [ -1, 1, LC_Block, [ 256, 1, 5, False ] ],
    [ -1, 1, LC_Block, [ 256, 1, 5, False ] ], # 10-P5/32
    [ -1, 1, LC_Block, [ 256, 1, 5, False ] ],
    [ -1, 1, LC_Block, [ 256, 1, 5, False ] ], # 12-P5/32
    [ -1, 1, LC_Block, [ 512, 2, 5, True ] ],
    [ -1, 1, LC_Block, [ 512, 1, 5, True ] ], # 14-P5/32
    [ -1, 1, LC_Block, [ 512, 1, 5, True ] ], # 15
    [ -1, 1, LC_Block, [ 512, 1, 5, True ] ], # 16
    [ -1, 1, Dense, [ 512, 1, 0.2 ] ],
  ]

# v5Lite-c head
head:
  [ [-1, 1, Conv, [256, 1, 1]], # 18
    [ -1, 1, nn.Upsample, [ None, 2, 'nearest' ] ],
    [ [ -1, 12 ], 1, Concat, [ 1 ] ],  # cat backbone P4
    [-1, 1, C3, [256, False]],  # 21

    [-1, 1, Conv, [128, 1, 1]], # 22
    [ -1, 1, nn.Upsample, [ None, 2, 'nearest' ] ],
    [ [ -1, 6 ], 1, Concat, [ 1 ] ],  # cat backbone P3
    [-1, 1, C3, [128, False]],  # 25 (P3/8-small)

    [ -1, 1, LC_Block, [ 128, 2, 5, True ] ],  # 26
    [ [ -1, 22 ], 1, Concat, [ 1 ] ],  # cat head P4
    [-1, 1, C3, [256, False]],  # 28 (P4/16-medium)

    [ -1, 1, LC_Block, [ 256, 2, 5, True ] ], # 29
    [ [ -1, 18 ], 1, Concat, [ 1 ] ],  # cat head P5
    [-1, 1, C3, [512, False]],  # 31 (P5/32-large)

    [ [ 25, 28, 31 ], 1, Detect, [ nc ] ],  # Detect(P3, P4, P5)
  ]